…
state_dict key: mid_block.motion_modules.0.temporal_transformer.proj_out.weight, value:torch.Size([1280, 1280])
state_dict key: mid_block.motion_modules.0.temporal_transformer.proj_out.bias, value:torch.Size([1280])
### missing keys: 686, unexpected keys: 0, total keys: 588
dreambooth_path: models/DreamBooth_LoRA/realisticVisionV60B1_v51VAE.safetensors
load dreambooth model from models/DreamBooth_LoRA/realisticVisionV60B1_v51VAE.safetensors
### missing keys: 0, unexpected keys: 0, total keys: 248
### missing keys: 588, unexpected keys: 0, total keys: 686
### newly loaded text_encoder: CLIPTextModel(
  (text_model): CLIPTextTransformer(
    (embeddings): CLIPTextEmbeddings(
      (token_embedding): Embedding(49408, 768)
      (position_embedding): Embedding(77, 768)
    )
    (encoder): CLIPEncoder(
      (layers): ModuleList(
        (0-11): 12 x CLIPEncoderLayer(
          (self_attn): CLIPAttention(
            (k_proj): Linear(in_features=768, out_features=768, bias=True)
            (v_proj): Linear(in_features=768, out_features=768, bias=True)
            (q_proj): Linear(in_features=768, out_features=768, bias=True)
            (out_proj): Linear(in_features=768, out_features=768, bias=True)
          )
          (layer_norm1): LayerNorm((768,), eps=1e-05, elementwise_affine=True)
          (mlp): CLIPMLP(
            (activation_fn): QuickGELUActivation()
            (fc1): Linear(in_features=768, out_features=3072, bias=True)
            (fc2): Linear(in_features=3072, out_features=768, bias=True)
          )
          (layer_norm2): LayerNorm((768,), eps=1e-05, elementwise_affine=True)
        )
      )
    )
    (final_layer_norm): LayerNorm((768,), eps=1e-05, elementwise_affine=True)
  )
)
### trainable params number: 546
### trainable params scale: 453.209 M
### loading annotations from data/animated_diff_ds_1704397657.csv ...
### data scale: 117
